models/meu_wake_word_model.tflite (tflite, 136440 bytes, 12 tensors)

tfl.pseudo_qconst1 i1 [1, 64] scale=0.0023503434 zero_point=0
000000 9a c1 fe 4b 2d 1c d9 81 6d 0a 7a 16 a4 52 f5 77
       -0.23973502 -0.14807163 -0.004700687 0.17627576 0.105765454 0.065809615 -0.09166339 -0.29849362 0.25618744 0.023503434 0.28674188 0.051707555 -0.21623158 0.19272816 -0.025853777 0.27969086
000010 3e 01 92 9a 17 31 f9 fe af 5c 0b 94 e1 92 9d 9b
       0.14572129 0.0023503434 -0.25853777 -0.23973502 0.054057896 0.11516683 -0.016452404 -0.004700687 -0.19037782 0.21623158 0.025853777 -0.25383708 -0.07286064 -0.25853777 -0.232684 -0.23738468
000020 8d 40 e1 47 f6 db 25 18 f8 fe 03 35 b4 58 66 b7
       -0.27028948 0.15042198 -0.07286064 0.16687438 -0.023503434 -0.08696271 0.08696271 0.05640824 -0.018802747 -0.004700687 0.00705103 0.1245682 -0.17862609 0.20683022 0.23973502 -0.17157507
000030 d4 e8 a7 28 44 bc fe 0e c8 e9 95 21 fa 00 f4 f3
       -0.10341511 -0.05640824 -0.20918056 0.094013736 0.15982336 -0.15982336 -0.004700687 0.032904807 -0.13161923 -0.054057896 -0.25148675 0.077561334 -0.01410206 0.0 -0.02820412 -0.030554464

tfl.pseudo_qconst3 i1 [64, 128]
000000 41 ae 06 8d e9 27 df 38 31 66 b5 5c 45 a5 d2 54
       65 -82 6 -115 -23 39 -33 56 49 102 -75 92 69 -91 -46 84
000010 c6 e4 18 10 02 dd 37 7e b5 dd b7 7c 1f e5 1a 73
       -58 -28 24 16 2 -35 55 126 -75 -35 -73 124 31 -27 26 115
000020 9d ad 50 14 d7 a4 0b 8e 2c 38 f9 40 09 d4 e3 a9
       -99 -83 80 20 -41 -92 11 -114 44 56 -7 64 9 -44 -29 -87
000030 ee 97 ab d1 0f 22 6d 3f 03 43 8c fd 86 1c b0 8d
       -18 -105 -85 -47 15 34 109 63 3 67 -116 -3 -122 28 -80 -115
000040 4d e2 27 a9 14 42 4b 21 ec e1 3e ed 83 db f6 be
       77 -30 39 -87 20 66 75 33 -20 -31 62 -19 -125 -37 -10 -66
000050 46 e4 b2 0f 42 7f c0 d0 e6 15 82 1d 76 76 28 ec
       70 -28 -78 15 66 127 -64 -48 -26 21 -126 29 118 118 40 -20
000060 67 e4 dc 99 9a 50 64 39 2e 68 88 c8 90 e8 06 fc
       103 -28 -36 -103 -102 80 100 57 46 104 -120 -56 -112 -24 6 -4
000070 6c 29 18 23 e5 6d a3 b8 25 4f 61 ea 50 b8 cc d3
       108 41 24 35 -27 109 -93 -72 37 79 97 -22 80 -72 -52 -45
000080 4c fe 39 9e c9 ed 4c 32 1b 28 e0 8c 66 a7 ff 53
       76 -2 57 -98 -55 -19 76 50 27 40 -32 -116 102 -89 -1 83
000090 71 11 07 b2 ed 59 c8 93 ba a4 36 74 fe ff c6 e6
       113 17 7 -78 -19 89 -56 -109 -70 -92 54 116 -2 -1 -58 -26
0000a0 05 9a 10 bf 82 75 63 10 3d a2 81 fa 8e 17 d7 15
       5 -102 16 -65 -126 117 99 16 61 -94 -127 -6 -114 23 -41 21
0000b0 68 8b a4 97 c2 72 04 6c 29 13 66 d5 21 49 40 11
       104 -117 -92 -105 -62 114 4 108 41 19 102 -43 33 73 64 17
0000c0 bf 25 c2 e1 75 16 ea 12 40 4e 6a 7e c6 dd ef 7d
       -65 37 -62 -31 117 22 -22 18 64 78 106 126 -58 -35 -17 125
0000d0 d5 1e 42 17 dc 3b 60 bd cf a8 14 cd 5d e4 ba e2
       -43 30 66 23 -36 59 96 -67 -49 -88 20 -51 93 -28 -70 -30
0000e0 a3 74 b5 bd 89 6d 38 85 8d b6 c3 64 62 01 51 f2
       -93 116 -75 -67 -119 109 56 -123 -115 -74 -61 100 98 1 81 -14
0000f0 f7 cf e5 0a 45 b5 b2 4d ac c2 68 59 45 7a 11 e3
       -9 -49 -27 10 69 -75 -78 77 -84 -62 104 89 69 122 17 -29

tfl.pseudo_qconst5 i1 [128, 128]
000000 b8 66 04 0c a0 0a c2 ff 72 be 5a 9c fc c3 eb eb
       -72 102 4 12 -96 10 -62 -1 114 -66 90 -100 -4 -61 -21 -21
000010 ed 9a 8e 1f ec f7 2a 34 2b 5d 89 76 71 34 be d4
       -19 -102 -114 31 -20 -9 42 52 43 93 -119 118 113 52 -66 -44
000020 bc e0 58 75 04 aa 71 cf 3c de a4 7e 10 88 e9 9e
       -68 -32 88 117 4 -86 113 -49 60 -34 -92 126 16 -120 -23 -98
000030 55 d2 ef fe 4d c1 bf 77 cb 00 fd f2 d9 d1 4d aa
       85 -46 -17 -2 77 -63 -65 119 -53 0 -3 -14 -39 -47 77 -86
000040 b1 f6 cc a9 0a c2 c4 bc 4b dc ad 1b a5 59 02 bd
       -79 -10 -52 -87 10 -62 -60 -68 75 -36 -83 27 -91 89 2 -67
000050 c2 bc 40 a5 a8 b0 87 68 e6 96 f3 81 cc 87 26 99
       -62 -68 64 -91 -88 -80 -121 104 -26 -106 -13 -127 -52 -121 38 -103
000060 4a 63 d9 65 7a 10 58 52 21 3b d1 3b 59 45 ec f1
       74 99 -39 101 122 16 88 82 33 59 -47 59 89 69 -20 -15
000070 01 87 84 af 18 75 ae 40 f1 cb f9 61 c3 89 5f 00
       1 -121 -124 -81 24 117 -82 64 -15 -53 -7 97 -61 -119 95 0
000080 dd 16 34 ee ad 5c 16 44 88 69 3d 01 7f 1d 6c 34
       -35 22 52 -18 -83 92 22 68 -120 105 61 1 127 29 108 52
000090 8b 20 0f f5 e0 d6 e7 7c 1a 47 f5 ad 8a 07 15 49
       -117 32 15 -11 -32 -42 -25 124 26 71 -11 -83 -118 7 21 73
0000a0 df 72 bd a3 ad 5e af fc 3c 6c d9 ed 7a 33 d9 27
       -33 114 -67 -93 -83 94 -81 -4 60 108 -39 -19 122 51 -39 39
0000b0 90 7c 96 32 96 4e cd 1f e9 3b fd 70 91 b9 07 6e
       -112 124 -106 50 -106 78 -51 31 -23 59 -3 112 -111 -71 7 110
0000c0 16 52 36 26 61 9c 09 13 62 2a ad c5 00 9c 42 44
       22 82 54 38 97 -100 9 19 98 42 -83 -59 0 -100 66 68
0000d0 b6 4c 56 c2 55 9a e7 a4 8a c6 a9 62 c6 1f c1 91
       -74 76 86 -62 85 -102 -25 -92 -118 -58 -87 98 -58 31 -63 -111
0000e0 ab d3 19 3b 45 03 fd 11 81 e9 fa 7c e3 dd 98 4e
       -85 -45 25 59 69 3 -3 17 -127 -23 -6 124 -29 -35 -104 78
0000f0 6b be 17 2b cc 86 3f 29 2a 41 48 8f 8f a3 9f 14
       107 -66 23 43 -52 -122 63 41 42 65 72 -113 -113 -93 -97 20

tfl.pseudo_qconst6 i1 [128] scale=0.0003035933 zero_point=127
000000 de 36 41 f9 42 37 55 d2 09 dc 3d 16 de 15 be 00
       -0.04887852 -0.02216231 -0.018822784 -0.0406815 -0.018519191 -0.021858716 -0.012750918 -0.05252164 -0.03582401 -0.049485706 -0.020037157 -0.031877294 -0.04887852 -0.03218089 -0.058593504 -0.03855635
000010 ed b5 0b f9 5c c9 3d 3c 3a 25 1b 34 b1 40 22 40
       -0.04432462 -0.061325844 -0.035216823 -0.0406815 -0.010625765 -0.05525398 -0.020037157 -0.02034075 -0.020947937 -0.027323397 -0.03035933 -0.022769496 -0.06254022 -0.019126378 -0.028234176 -0.019126378
000020 d5 e5 cc 0d 29 b8 05 25 2c e5 25 0e 2b 19 80 24
       -0.05161086 -0.046753366 -0.054343197 -0.034609634 -0.026109023 -0.060415063 -0.037038382 -0.027323397 -0.025198244 -0.046753366 -0.027323397 -0.034306042 -0.025501836 -0.030966515 -0.077416286 -0.02762699
000030 47 01 1f 07 f9 31 15 f3 c9 0b 09 d6 a0 3b d0 52
       -0.017001225 -0.038252756 -0.029144956 -0.036431193 -0.0406815 -0.023680277 -0.03218089 -0.04250306 -0.05525398 -0.035216823 -0.03582401 -0.051307265 -0.0677013 -0.020644344 -0.053128827 -0.013661698
000040 30 ef 36 31 fd 2c 4c 43 2d dc 1a 0f cd 0e 09 5a
       -0.02398387 -0.043717433 -0.02216231 -0.023680277 -0.039467126 -0.025198244 -0.015483257 -0.018215597 -0.02489465 -0.049485706 -0.030662922 -0.03400245 -0.054039605 -0.034306042 -0.03582401 -0.011232952
000050 32 40 e4 42 23 c1 0e 64 10 54 b3 0d 42 0b 03 cb
       -0.023376683 -0.019126378 -0.047056958 -0.018519191 -0.027930582 -0.057682727 -0.034306042 -0.008197019 -0.033698857 -0.0130545115 -0.06193303 -0.034609634 -0.018519191 -0.035216823 -0.037645567 -0.054646794
000060 b2 48 35 39 29 5a fe bf 1e 22 d4 3d 2f eb b9 ed
       -0.062236626 -0.01669763 -0.022465903 -0.02125153 -0.026109023 -0.011232952 -0.039163534 -0.05828991 -0.029448548 -0.028234176 -0.051914454 -0.020037157 -0.024287462 -0.044931807 -0.06011147 -0.04432462
000070 51 54 c7 12 31 4b 52 4c 0a 27 f3 4d 0f 1d ed f6
       -0.013965291 -0.0130545115 -0.055861164 -0.033091668 -0.023680277 -0.01578685 -0.013661698 -0.015483257 -0.035520416 -0.02671621 -0.04250306 -0.015179665 -0.03400245 -0.029752143 -0.04432462 -0.04159228

tfl.pseudo_qconst7 i1 [128] scale=0.0040414454 zero_point=-128
000000 75 7c 7d 79 7d 7e 7d 75 7a 77 7d 7b 77 7c 72 7b
       0.99015415 1.0184443 1.0224857 1.0063199 1.0224857 1.0265272 1.0224857 0.99015415 1.0103613 0.998237 1.0224857 1.0144027 0.998237 1.0184443 0.9780298 1.0144027
000010 79 73 79 78 7e 73 7d 7d 7e 7e 7d 7d 72 7d 7d 7e
       1.0063199 0.9820712 1.0063199 1.0022784 1.0265272 0.9820712 1.0224857 1.0224857 1.0265272 1.0265272 1.0224857 1.0224857 0.9780298 1.0224857 1.0224857 1.0265272
000020 76 79 77 7b 7b 72 77 7c 7d 78 7c 79 7c 7b 70 7c
       0.9941956 1.0063199 0.998237 1.0144027 1.0144027 0.9780298 0.998237 1.0184443 1.0224857 1.0022784 1.0184443 1.0063199 1.0184443 1.0144027 0.9699469 1.0184443
000030 7e 78 7c 7b 7a 7c 7a 7b 78 7a 7a 77 71 7c 78 7e
       1.0265272 1.0022784 1.0184443 1.0144027 1.0103613 1.0184443 1.0103613 1.0144027 1.0022784 1.0103613 1.0103613 0.998237 0.97398835 1.0184443 1.0022784 1.0265272
000040 7c 77 7d 7d 78 7d 7d 7f 7d 77 7c 7a 74 7a 79 7f
       1.0184443 0.998237 1.0224857 1.0224857 1.0022784 1.0224857 1.0224857 1.0305686 1.0224857 0.998237 1.0184443 1.0103613 0.9861127 1.0103613 1.0063199 1.0305686
000050 7c 7e 79 7e 7d 72 7c 7e 79 7f 73 7a 7e 7b 79 77
       1.0184443 1.0265272 1.0063199 1.0265272 1.0224857 0.9780298 1.0184443 1.0265272 1.0063199 1.0305686 0.9820712 1.0103613 1.0265272 1.0144027 1.0063199 0.998237
000060 74 7f 7c 7d 7b 7d 79 77 7c 7b 77 7d 7c 76 73 77
       0.9861127 1.0305686 1.0184443 1.0224857 1.0144027 1.0224857 1.0063199 0.998237 1.0184443 1.0144027 0.998237 1.0224857 1.0184443 0.9941956 0.9820712 0.998237
000070 7f 7e 75 7a 7d 7e 7f 7f 7a 7b 79 7f 79 7c 7a 7b
       1.0305686 1.0265272 0.99015415 1.0103613 1.0224857 1.0265272 1.0305686 1.0305686 1.0103613 1.0144027 1.0063199 1.0305686 1.0063199 1.0184443 1.0103613 1.0144027

tfl.pseudo_qconst9 i1 [128, 3, 3, 64]
000000 1b c6 a6 1f fd 56 30 99 48 d7 4a 20 f2 3d 9b b3
       27 -58 -90 31 -3 86 48 -103 72 -41 74 32 -14 61 -101 -77
000010 21 d3 31 94 9e 0e 26 48 18 69 6a c7 61 b6 fb 1a
       33 -45 49 -108 -98 14 38 72 24 105 106 -57 97 -74 -5 26
000020 6c ab 28 52 0a ff 9b 20 0a c0 e2 dc 51 40 34 96
       108 -85 40 82 10 -1 -101 32 10 -64 -30 -36 81 64 52 -106
000030 db 1b b2 08 e1 16 14 2d 18 0b 77 d6 4e e4 3a fc
       -37 27 -78 8 -31 22 20 45 24 11 119 -42 78 -28 58 -4
000040 38 99 27 64 f8 ed 75 63 53 2c de bf 55 df 9e 2c
       56 -103 39 100 -8 -19 117 99 83 44 -34 -65 85 -33 -98 44
000050 8f e2 cb 83 2c 82 17 d8 2f ac 06 4b 9a 32 e5 f5
       -113 -30 -53 -125 44 -126 23 -40 47 -84 6 75 -102 50 -27 -11
000060 48 84 20 0f 78 0a e9 3a b5 63 5e 2a a0 43 61 cc
       72 -124 32 15 120 10 -23 58 -75 99 94 42 -96 67 97 -52
000070 05 61 e6 4a 78 c2 f5 73 3c 1f ca 12 d4 44 d0 1f
       5 97 -26 74 120 -62 -11 115 60 31 -54 18 -44 68 -48 31
000080 eb d6 34 f6 f6 c6 27 9c f8 b9 2c 90 98 5e a1 20
       -21 -42 52 -10 -10 -58 39 -100 -8 -71 44 -112 -104 94 -95 32
000090 58 03 bd c5 39 01 ee 5f 59 31 b1 9f 49 1d d1 70
       88 3 -67 -59 57 1 -18 95 89 49 -79 -97 73 29 -47 112
0000a0 31 65 ef 5b 47 0e 64 e7 31 e8 dc a0 2d 82 e6 7c
       49 101 -17 91 71 14 100 -25 49 -24 -36 -96 45 -126 -26 124
0000b0 43 bc ed 2d b4 18 45 d0 07 e2 99 12 e2 da 36 c4
       67 -68 -19 45 -76 24 69 -48 7 -30 -103 18 -30 -38 54 -60
0000c0 fc 9e c0 5d a8 4c a4 30 1d 11 d9 e2 61 08 bc 99
       -4 -98 -64 93 -88 76 -92 48 29 17 -39 -30 97 8 -68 -103
0000d0 2f c0 a1 82 67 46 5e 70 9f 59 a1 8a 3d 46 03 af
       47 -64 -95 -126 103 70 94 112 -97 89 -95 -118 61 70 3 -81
0000e0 72 ee f3 31 b5 df 4d 63 3c a5 55 c8 50 04 46 f7
       114 -18 -13 49 -75 -33 77 99 60 -91 85 -56 80 4 70 -9
0000f0 ee 5c a1 7a 0d 17 7c f0 2f ec 07 ff 8c 01 18 01
       -18 92 -95 122 13 23 124 -16 47 -20 7 -1 -116 1 24 1

tfl.pseudo_qconst10 i1 [64] scale=0.00022072862 zero_point=127
000000 1d 21 10 3e 0f 1b 1d 38 45 4d 60 37 d5 2b 1b d5
       -0.021631405 -0.02074849 -0.024500877 -0.0143473605 -0.024721606 -0.022072861 -0.021631405 -0.015671732 -0.01280226 -0.0110364305 -0.006842587 -0.015892461 -0.037523866 -0.018541204 -0.022072861 -0.037523866
000010 50 63 fa 11 31 63 ee 59 58 ec 2f 4f 1c 61 50 3f
       -0.010374245 -0.0061804014 -0.029356906 -0.024280148 -0.017216831 -0.0061804014 -0.03200565 -0.008387688 -0.008608416 -0.032447107 -0.01765829 -0.010594973 -0.021852134 -0.0066218586 -0.010374245 -0.014126631
000020 4f 24 f7 f0 d5 c5 d0 3a 48 38 2f 50 49 27 65 5d
       -0.010594973 -0.020086303 -0.030019091 -0.03156419 -0.037523866 -0.041055523 -0.03862751 -0.015230275 -0.012140074 -0.015671732 -0.01765829 -0.010374245 -0.011919346 -0.019424118 -0.005738944 -0.007504773
000030 3f 44 dc d0 41 1c 0a 3c 2f 52 fe 80 4a 33 3a 0d
       -0.014126631 -0.013022988 -0.035978764 -0.03862751 -0.013685174 -0.021852134 -0.025825247 -0.014788818 -0.01765829 -0.009932788 -0.028473992 -0.0562858 -0.011698617 -0.016775375 -0.015230275 -0.025163062

tfl.pseudo_qconst11 i1 [64] scale=0.0040656286 zero_point=-128
000000 7d 7c 7a 7c 7d 7b 7c 7b 7c 7e 7e 7d 79 7a 7d 79
       1.028604 1.0245384 1.0164071 1.0245384 1.028604 1.0204728 1.0245384 1.0204728 1.0245384 1.0326697 1.0326697 1.028604 1.0123415 1.0164071 1.028604 1.0123415
000010 7d 7e 7b 7c 7d 7d 79 7f 7e 7c 7c 7e 7b 7f 7d 7c
       1.028604 1.0326697 1.0204728 1.0245384 1.028604 1.028604 1.0123415 1.0367353 1.0326697 1.0245384 1.0245384 1.0326697 1.0204728 1.0367353 1.028604 1.0245384
000020 7d 7c 7c 7c 7c 7a 79 7c 7f 7d 7c 7f 7b 7d 7d 7d
       1.028604 1.0245384 1.0245384 1.0245384 1.0245384 1.0164071 1.0123415 1.0245384 1.0367353 1.028604 1.0245384 1.0367353 1.0204728 1.028604 1.028604 1.028604
000030 7e 7c 7c 77 7e 7c 7c 7e 7b 7e 7c 74 7d 7d 7b 7c
       1.0326697 1.0245384 1.0245384 1.0042102 1.0326697 1.0245384 1.0245384 1.0326697 1.0204728 1.0326697 1.0245384 0.9920134 1.028604 1.028604 1.0204728 1.0245384

tfl.pseudo_qconst13 i1 [64, 3, 3, 32]
000000 46 50 30 fd aa 15 2d c4 22 40 df f7 71 20 99 d5
       70 80 48 -3 -86 21 45 -60 34 64 -33 -9 113 32 -103 -43
000010 23 b1 a4 4f a1 eb dd 97 48 3c a4 23 9c 2c 20 5c
       35 -79 -92 79 -95 -21 -35 -105 72 60 -92 35 -100 44 32 92
000020 10 0c 35 0c 51 1d be 6f 52 8a 1e c5 60 3f 1f ed
       16 12 53 12 81 29 -66 111 82 -118 30 -59 96 63 31 -19
000030 e7 ac d6 b0 62 f1 e3 87 1d 41 e8 33 ab 3d 05 e8
       -25 -84 -42 -80 98 -15 -29 -121 29 65 -24 51 -85 61 5 -24
000040 f4 d9 e9 4e 55 e7 32 49 48 5b 21 ef 03 66 b9 0f
       -12 -39 -23 78 85 -25 50 73 72 91 33 -17 3 102 -71 15
000050 61 3c f6 3d c7 1a 64 c4 6e b5 f2 5d 5f 44 a9 d4
       97 60 -10 61 -57 26 100 -60 110 -75 -14 93 95 68 -87 -44
000060 8d 15 0d f3 aa 08 02 c6 6d 91 c7 53 d7 21 23 24
       -115 21 13 -13 -86 8 2 -58 109 -111 -57 83 -41 33 35 36
000070 2b 29 08 09 09 57 e3 11 60 e0 3d 56 87 5d 94 c2
       43 41 8 9 9 87 -29 17 96 -32 61 86 -121 93 -108 -62
000080 6d c6 f4 3b fb 5d 1e 01 89 71 94 a2 e4 5a 46 83
       109 -58 -12 59 -5 93 30 1 -119 113 -108 -94 -28 90 70 -125
000090 16 a9 1c 0d ab eb 96 00 e6 5e 0f 24 46 9d 67 db
       22 -87 28 13 -85 -21 -106 0 -26 94 15 36 70 -99 103 -37
0000a0 53 dd 72 90 59 16 fc c6 a2 d5 d6 e7 44 be e4 0d
       83 -35 114 -112 89 22 -4 -58 -94 -43 -42 -25 68 -66 -28 13
0000b0 8c 0f d3 0d 3a be 17 e8 0a 6c 0b 67 12 f8 0c ca
       -116 15 -45 13 58 -66 23 -24 10 108 11 103 18 -8 12 -54
0000c0 7d 26 cd 8b 24 4b 26 c7 1b 44 23 4a cc d3 88 fe
       125 38 -51 -117 36 75 38 -57 27 68 35 74 -52 -45 -120 -2
0000d0 51 07 54 94 4d e6 fa 43 da c5 7f ff e4 09 cc 8b
       81 7 84 -108 77 -26 -6 67 -38 -59 127 -1 -28 9 -52 -117
0000e0 52 91 73 0c 9e 8f c7 5f 75 1e e5 bf be 0d ce 18
       82 -111 115 12 -98 -113 -57 95 117 30 -27 -65 -66 13 -50 24
0000f0 4f 6a 48 8f 8c da 50 89 1e 03 f2 8c 3d 3f 40 e2
       79 106 72 -113 -116 -38 80 -119 30 3 -14 -116 61 63 64 -30

tfl.pseudo_qconst14 i1 [32] scale=0.0021850038 zero_point=125
000000 34 7d 3d 77 b8 e7 bc 7d 7e 7c 8b 89 7f b9 7b ae
       -0.15950528 0.0 -0.13984025 -0.013110023 -0.43044576 -0.32775056 -0.42170575 0.0 0.0021850038 -0.0021850038 -0.5287709 -0.53314096 0.0043700077 -0.42826074 -0.0043700077 -0.45229578
000010 b8 e9 99 45 2c 7d 7e 7d 7d e4 64 49 33 7d 7f 80
       -0.43044576 -0.32338056 -0.49818087 -0.122360215 -0.17698531 0.0 0.0021850038 0.0 0.0 -0.33430558 -0.054625094 -0.1136202 -0.16169028 0.0 0.0043700077 -0.55280596

tfl.pseudo_qconst15 i1 [32] scale=0.0040638996 zero_point=-128
000000 6b 7f 73 79 42 55 38 7f 7e 7d 1c 14 7f 33 7e 23
       0.95501643 1.0362945 0.9875276 1.011911 0.78839654 0.8656106 0.74775755 1.0362945 1.0322305 1.0281667 0.63396835 0.6014571 1.0362945 0.72743803 1.0322305 0.6624156
000010 41 54 28 65 66 7f 7f 7d 7f 4f 77 72 65 7e 7e fc
       0.78433263 0.8615467 0.68273515 0.930633 0.9346969 1.0362945 1.0362945 1.0281667 1.0362945 0.84122723 1.0037832 0.9834637 0.930633 1.0322305 1.0322305 0.50392354

tfl.pseudo_qconst17 i1 [32, 3, 3, 1]
000000 7b 34 b9 9e 20 ad 7f d3 c2 7f 44 e4 b9 d6 f7 62
       123 52 -71 -98 32 -83 127 -45 -62 127 68 -28 -71 -42 -9 98
000010 35 6e 69 c4 58 81 6b e6 d0 e5 b4 b5 b8 81 5f 47
       53 110 105 -60 88 -127 107 -26 -48 -27 -76 -75 -72 -127 95 71
000020 c9 41 14 7f 6c 8f 06 e9 9a eb 81 55 d5 a8 3d 51
       -55 65 20 127 108 -113 6 -23 -102 -21 -127 85 -43 -88 61 81
000030 47 81 93 70 fc 93 91 2b c3 ca 81 7c f7 3b ca 36
       71 -127 -109 112 -4 -109 -111 43 -61 -54 -127 124 -9 59 -54 54
000040 ea df 7f 4b 2b 20 7f ed 1a 01 1e 81 5a 17 66 d4
       -22 -33 127 75 43 32 127 -19 26 1 30 -127 90 23 102 -44
000050 1b d8 6b b2 e5 76 4e 81 77 b0 fe 49 a3 f4 81 d7
       27 -40 107 -78 -27 118 78 -127 119 -80 -2 73 -93 -12 -127 -41
000060 f1 a1 a1 ae ca 81 33 ea e3 06 ea f4 bc 12 1b 3c
       -15 -95 -95 -82 -54 -127 51 -22 -29 6 -22 -12 -68 18 27 60
000070 7f f3 35 73 74 29 5d 7f 88 93 c0 f3 a7 ca 7f 9e
       127 -13 53 115 116 41 93 127 -120 -109 -64 -13 -89 -54 127 -98
000080 20 6c 6c d6 0d bb 01 8a c2 ba e4 e2 fc b5 16 7f
       32 108 108 -42 13 -69 1 -118 -62 -70 -28 -30 -4 -75 22 127
000090 ee 81 23 82 e1 30 6c 2d 8b 4b 08 da 88 81 79 b7
       -18 -127 35 -126 -31 48 108 45 -117 75 8 -38 -120 -127 121 -73
0000a0 16 d9 2e 8d 49 0d 06 ad ab 81 97 81 94 fd de 78
       22 -39 46 -115 73 13 6 -83 -85 -127 -105 -127 -108 -3 -34 120
0000b0 1d f3 fb 7b c9 81 f3 b5 2e fe 0d 4a 4c 7f 60 86
       29 -13 -5 123 -55 -127 -13 -75 46 -2 13 74 76 127 96 -122
0000c0 79 ed c4 f2 4c 54 0f 32 3f 2c 5c 6f 7d c7 81 18
       121 -19 -60 -14 76 84 15 50 63 44 92 111 125 -57 -127 24
0000d0 20 62 a7 b1 db 7f 6f 25 7f 8a 60 e1 40 f0 7f ea
       32 98 -89 -79 -37 127 111 37 127 -118 96 -31 64 -16 127 -22
0000e0 71 7f a9 92 e1 a5 20 69 1a b5 ea 23 9c 55 b3 5b
       113 127 -87 -110 -31 -91 32 105 26 -75 -22 35 -100 85 -77 91
0000f0 6d 81 09 b2 9c 14 7f 1b b6 7d a8 f8 a3 dd 7f 3f
       109 -127 9 -78 -100 20 127 27 -74 125 -88 -8 -93 -35 127 63
